…
m_untrained). . As for the tokenizer, we don&#39;t really need the actual model&#39;s tokenizer with associated vocabulary, etc., since we can just map each nucleotide to an integer. This should be equivalent to character-level tokenization of each nucleotide with an untrained vocabulary, but also allowed for the use of nn.Embedding() for the second CNN (detailed above). . For illustrative purposes: . model = AutoModelForSequenceClassification.from_config( AutoConfig.from_pretrained(&#39;xlnet-base-cased&#39;) ) model . XLNetForSequenceClassification( (transformer): XLNetModel( (word_embedding): Embedding(32000, 768) (layer): ModuleList( (0): XLNetLayer( (rel_attn): XLNetRelativeAttention( (layer_norm): LayerNorm((768,), eps=1e-12, elementwise_affine=True) (dropout): Dropout(p=0.1, inplace=False) ) (ff): XLNetFeedForward( (layer_norm): LayerNorm((768,), eps=1e-12, elementwise_affine=True) (layer_1): Linear(in_features=768, out_features=3072, bias=True) (layer_2): Linear(in_features=3072, out_features=768, bias=True) (dropout): Dropout(p=0.1, inplace=False) ) (dropout): Dropout(p=0.1, inplace=False) ) (1): XLNetLayer( (rel_attn): XLNetRelativeAttention( (layer_norm): LayerNorm((768,), eps=1e-12, elementwise_affine=True) (dropout): Dropout(p=0.1, inplace=False) ) (ff): XLNetFeedForward( (layer_norm): LayerNorm((768,), eps=1e-12, elementwise_affine=True) (layer_1): Linear(in_features=768, out_features=3072, bias=True) (layer_2): Linear(in_features=3072, out_features=768, bias=True) (dropout): Dropout(p=0.1, inplace=False) ) (dropout): Dropout(p=0.1, inplace=False) ) (2): XLNetLayer( (rel_attn): XLNetRelativeAttention( (layer_norm): LayerNorm((768,), eps=1e-12, elementwise_affine=True) (dropout): Dropout(p=0.1, inplace=False) ) (ff): XLNetFeedForward( (layer_norm): LayerNorm((768,), eps=1e-12, elementwise_affine=True) (layer_1): Linear(in_features=768, out_features=3072, bias=True) (layer_2): Linear(in_features=3072, out_features=768, bias=True) (dropout): Dropout(p=0.1, inplace=False) ) (dropout): Dropout(p=0.1, inplace=False) ) (3): XLNetLayer( (rel_attn): XLNetRelativeAttention( (layer_norm): LayerNorm((768,), eps=1e-12, elementwise_affine=True) (dropout): Dropout(p=0.1, inplace=False) ) (ff): XLNetFeedForward( (layer_norm): LayerNorm((768,), eps=1e-12, elementwise_affine=True) (layer_1): Linear(in_features=768, out_features=3072, bias=True) (layer_2): Linear(in_features=3072, out_features=768, bias=True) (dropout): Dropout(p=0.1, inplace=False) ) (dropout): Dropout(p=0.1, inplace=False) ) (4): XLNetLayer( (rel_attn): XLNetRelativeAttention( (layer_norm): LayerNorm((768,), eps=1e-12, elementwise_affine=True) (dropout): Dropout(p=0.1, inplace=False) ) (ff): XLNetFeedForward( (layer_norm): LayerNorm((768,), eps=1e-12, elementwise_affine=True) (layer_1): Linear(in_features=768, out_features=3072, bias=True) (layer_2): Linear(in_features=3072, out_features=768, bias=True) (dropout): Dropout(p=0.1, inplace=False) ) (dropout): Dropout(p=0.1, inplace=False) ) (5): XLNetLayer( (rel_attn): XLNetRelativeAttention( (layer_norm): LayerNorm((768,), eps=1e-12, elementwise_affine=True) (dropout): Dropout(p=0.1, inplace=False) ) (ff): XLNetFeedForward( (layer_norm): LayerNorm((768,), eps=1e-12, elementwise_affine=True) (layer_1): Linear(in_features=768, out_features=3072, bias=True) (layer_2): Linear(in_features=3072, out_features=768, bias=True) (dropout): Dropout(p=0.1, inplace=False) ) (dropout): Dropout(p=0.1, inplace=False) ) (6): XLNetLayer( (rel_attn): XLNetRelativeAttention( (layer_norm): LayerNorm((768,), eps=1e-12, elementwise_affine=True) (dropout): Dropout(p=0.1, inplace=False) ) (ff): XLNetFeedForward( (layer_norm): LayerNorm((768,), eps=1e-12, elementwise_affine=True) (layer_1): Linear(in_features=768, out_features=3072, bias=True) (layer_2): Linear(in_features=3072, out_features=768, bias=True) (dropout): Dropout(p=0.1, inplace=False) ) (dropout): Dropout(p=0.1, inplace=False) ) (7): XLNetLayer( (rel_attn): XLNetRelativeAttention( (layer_norm): LayerNorm((768,), eps=1e-12, elementwise_affine=True) (dropout): Dropout(p=0.1, inplace=False) ) (ff): XLNetFeedForward( (layer_norm): LayerNorm((768,), eps=1e-12, elementwise_affine=True) (layer_1): Linear(in_features=768, out_features=3072, bias=True) (layer_2): Linear(in_features=3072, out_features=768, bias=True) (dropout): Dropout(p=0.1, inplace=False) ) (dropout): Dropout(p=0.1, inplace=False) ) (8): XLNetLayer( (rel_attn): XLNetRelativeAttention( (layer_norm): LayerNorm((768,), eps=1e-12, elementwise_affine=True) (dropout): Dropout(p=0.1, inplace=False) ) (ff): XLNetFeedForward( (layer_norm): LayerNorm((768,), eps=1e-12, elementwise_affine=True) (layer_1): Linear(in_features=768, out_features=3072, bias=True) (layer_2): Linear(in_features=3072, out_features=768, bias=True) (dropout): Dropout(p=0.1, inplace=False) ) (dropout): Dropout(p=0.1, inplace=False) ) (9): XLNetLayer( (rel_attn): XLNetRelativeAttention( (layer_norm): LayerNorm((768,), eps=1e-12, elementwise_affine=True) (dropout): Dropout(p=0.1, inplace=False) ) (ff): XLNetFeedForward( (layer_norm): LayerNorm((768,), eps=1e-12, elementwise_affine=True) (layer_1): Linear(in_features=768, out_features=3072, bias=True) (layer_2): Linear(in_features=3072, out_features=768, bias=True) (dropout): Dropout(p=0.1, inplace=False) ) (dropout): Dropout(p=0.1, inplace=False) ) (10): XLNetLayer( (rel_attn): XLNetRelativeAttention( (layer_norm): LayerNorm((768,), eps=1e-12, elementwise_affine=True) (dropout): Dropout(p=0.1, inplace=False) ) (ff): XLNetFeedForward( (layer_norm): LayerNorm((768,), eps=1e-12, elementwise_affine=True) (layer_1): Linear(in_features=768, out_features=3072, bias=True) (layer_2): Linear(in_features=3072, out_features=768, bias=True) (dropout): Dropout(p=0.1, inplace=False) ) (dropout): Dropout(p=0.1, inplace=False) ) (11): XLNetLayer( (rel_attn): XLNetRelativeAttention( (layer_norm): LayerNorm((768,), eps=1e-12, elementwise_affine=True) (dropout): Dropout(p=0.1, inplace=False) ) (ff): XLNetFeedForward( (layer_norm): LayerNorm((768,), eps=1e-12, elementwise_affine=True) (layer_1): Linear(in_features=768, out_features=3072, bias=True) (layer_2): Linear(in_features=3072, out_features=768, bias=True) (dropout): Dropout(p=0.1, inplace=False) ) (dropout): Dropout(p=0.1, inplace=False) ) ) (dropout): Dropout(p=0.1, inplace=False) ) (sequence_summary): SequenceSummary( (summary): Linear(in_features=768, out_features=768, bias=True) (first_dropout): Identity() (last_dropout): Dropout(p=0.1, inplace=False) ) (logits_proj): Linear(in_features=768, out_features=2, bias=True) ) . The transformer model is currently instantiated for classification (model.logits_proj has out_features=2). Note that we will need to take some form of activation across these logits (sigmoid, or even plain argmax). We can use BCEWithLogits (binary cross entropy with logits) to accomplish this. . Note due to the nature of binary (versus multlabel) cla
…
ss. loss = criterion(out, data.y) # Compute the loss (Mean Absolute Error) loss.backward() # Derive gradients. optimizer.step() # Update parameters based on gradients. optimizer.zero_grad() # Clear gradients. loss_sum+=loss return loss #loss_sum / len(train_loader.dataset) # Derive average loss over minibatch. def test(loader): model.eval() loss_sum = 0 for data in loader: # Iterate in batches over the training/test dataset. out = model(data.x, data.edge_index, data.batch) loss = criterion(out,data.y) return loss #final loss, not averaged . GCN( (emb): AtomEncoder( (embeddings): ModuleList( (0): Embedding(100, 9) (1): Embedding(100, 9) (2): Embedding(100, 9) (3): Embedding(100, 9) (4): Embedding(100, 9) (5): Embedding(100, 9) (6): Embedding(100, 9) (7): Embedding(100, 9) (8): Embedding(100, 9) ) ) (conv1): GCNConv(9, 64) (conv2): GCNConv(64, 64) (conv3): GCNConv(64, 64) (lin): Linear(in_features=64, out_features=1, bias=True) ) . for epoch in range(1, 21): train() train_loss = test(train_loader) test_loss = test(eval_loader) print(f&#39;Epoch: {epoch:03d}, Train MAE: {train_loss:.4f}, Eval MAE: {test_loss:.4f}&#39;) . Epoch: 001, Train MAE: 0.8141, Eval MAE: 0.8941 Epoch: 002, Train MAE: 0.7051, Eval MAE: 0.9485 Epoch: 003, Train MAE: 0.9569, Eval MAE: 0.9822 Epoch: 004, Train
…
